{"format": "layers-model", "generatedBy": "keras v2.11.0", "convertedBy": "TensorFlow.js Converter v4.2.0", "modelTopology": {"keras_version": "2.11.0", "backend": "tensorflow", "model_config": {"class_name": "Functional", "config": {"name": "model", "layers": [{"class_name": "InputLayer", "config": {"batch_input_shape": [null, 32, 32, 3], "dtype": "float32", "sparse": false, "ragged": false, "name": "input_1"}, "name": "input_1", "inbound_nodes": []}, {"class_name": "Conv2D", "config": {"name": "conv2d", "trainable": true, "dtype": "float32", "filters": 64, "kernel_size": [9, 9], "strides": [1, 1], "padding": "same", "data_format": "channels_last", "dilation_rate": [1, 1], "groups": 1, "activation": "linear", "use_bias": true, "kernel_initializer": {"class_name": "GlorotUniform", "config": {"seed": null}}, "bias_initializer": {"class_name": "Zeros", "config": {}}, "kernel_regularizer": null, "bias_regularizer": null, "activity_regularizer": null, "kernel_constraint": null, "bias_constraint": null}, "name": "conv2d", "inbound_nodes": [[["input_1", 0, 0, {}]]]}, {"class_name": "PReLU", "config": {"name": "p_re_lu", "trainable": true, "dtype": "float32", "alpha_initializer": {"class_name": "Zeros", "config": {}}, "alpha_regularizer": null, "alpha_constraint": null, "shared_axes": [1, 2]}, "name": "p_re_lu", "inbound_nodes": [[["conv2d", 0, 0, {}]]]}, {"class_name": "Conv2D", "config": {"name": "conv2d_1", "trainable": true, "dtype": "float32", "filters": 64, "kernel_size": [3, 3], "strides": [1, 1], "padding": "same", "data_format": "channels_last", "dilation_rate": [1, 1], "groups": 1, "activation": "linear", "use_bias": true, "kernel_initializer": {"class_name": "GlorotUniform", "config": {"seed": null}}, "bias_initializer": {"class_name": "Zeros", "config": {}}, "kernel_regularizer": null, "bias_regularizer": null, "activity_regularizer": null, "kernel_constraint": null, "bias_constraint": null}, "name": "conv2d_1", "inbound_nodes": [[["p_re_lu", 0, 0, {}]]]}, {"class_name": "BatchNormalization", "config": {"name": "batch_normalization", "trainable": true, "dtype": "float32", "axis": [3], "momentum": 0.5, "epsilon": 0.001, "center": true, "scale": true, "beta_initializer": {"class_name": "Zeros", "config": {}}, "gamma_initializer": {"class_name": "Ones", "config": {}}, "moving_mean_initializer": {"class_name": "Zeros", "config": {}}, "moving_variance_initializer": {"class_name": "Ones", "config": {}}, "beta_regularizer": null, "gamma_regularizer": null, "beta_constraint": null, "gamma_constraint": null}, "name": "batch_normalization", "inbound_nodes": [[["conv2d_1", 0, 0, {}]]]}, {"class_name": "PReLU", "config": {"name": "p_re_lu_1", "trainable": true, "dtype": "float32", "alpha_initializer": {"class_name": "Zeros", "config": {}}, "alpha_regularizer": null, "alpha_constraint": null, "shared_axes": [1, 2]}, "name": "p_re_lu_1", "inbound_nodes": [[["batch_normalization", 0, 0, {}]]]}, {"class_name": "Conv2D", "config": {"name": "conv2d_2", "trainable": true, "dtype": "float32", "filters": 64, "kernel_size": [3, 3], "strides": [1, 1], "padding": "same", "data_format": "channels_last", "dilation_rate": [1, 1], "groups": 1, "activation": "linear", "use_bias": true, "kernel_initializer": {"class_name": "GlorotUniform", "config": {"seed": null}}, "bias_initializer": {"class_name": "Zeros", "config": {}}, "kernel_regularizer": null, "bias_regularizer": null, "activity_regularizer": null, "kernel_constraint": null, "bias_constraint": null}, "name": "conv2d_2", "inbound_nodes": [[["p_re_lu_1", 0, 0, {}]]]}, {"class_name": "BatchNormalization", "config": {"name": "batch_normalization_1", "trainable": true, "dtype": "float32", "axis": [3], "momentum": 0.5, "epsilon": 0.001, "center": true, "scale": true, "beta_initializer": {"class_name": "Zeros", "config": {}}, "gamma_initializer": {"class_name": "Ones", "config": {}}, "moving_mean_initializer": {"class_name": "Zeros", "config": {}}, "moving_variance_initializer": {"class_name": "Ones", "config": {}}, "beta_regularizer": null, "gamma_regularizer": null, "beta_constraint": null, "gamma_constraint": null}, "name": "batch_normalization_1", "inbound_nodes": [[["conv2d_2", 0, 0, {}]]]}, {"class_name": "Add", "config": {"name": "add", "trainable": true, "dtype": "float32"}, "name": "add", "inbound_nodes": [[["p_re_lu", 0, 0, {}], ["batch_normalization_1", 0, 0, {}]]]}, {"class_name": "Conv2D", "config": {"name": "conv2d_3", "trainable": true, "dtype": "float32", "filters": 64, "kernel_size": [3, 3], "strides": [1, 1], "padding": "same", "data_format": "channels_last", "dilation_rate": [1, 1], "groups": 1, "activation": "linear", "use_bias": true, "kernel_initializer": {"class_name": "GlorotUniform", "config": {"seed": null}}, "bias_initializer": {"class_name": "Zeros", "config": {}}, "kernel_regularizer": null, "bias_regularizer": null, "activity_regularizer": null, "kernel_constraint": null, "bias_constraint": null}, "name": "conv2d_3", "inbound_nodes": [[["add", 0, 0, {}]]]}, {"class_name": "BatchNormalization", "config": {"name": "batch_normalization_2", "trainable": true, "dtype": "float32", "axis": [3], "momentum": 0.5, "epsilon": 0.001, "center": true, "scale": true, "beta_initializer": {"class_name": "Zeros", "config": {}}, "gamma_initializer": {"class_name": "Ones", "config": {}}, "moving_mean_initializer": {"class_name": "Zeros", "config": {}}, "moving_variance_initializer": {"class_name": "Ones", "config": {}}, "beta_regularizer": null, "gamma_regularizer": null, "beta_constraint": null, "gamma_constraint": null}, "name": "batch_normalization_2", "inbound_nodes": [[["conv2d_3", 0, 0, {}]]]}, {"class_name": "PReLU", "config": {"name": "p_re_lu_2", "trainable": true, "dtype": "float32", "alpha_initializer": {"class_name": "Zeros", "config": {}}, "alpha_regularizer": null, "alpha_constraint": null, "shared_axes": [1, 2]}, "name": "p_re_lu_2", "inbound_nodes": [[["batch_normalization_2", 0, 0, {}]]]}, {"class_name": "Conv2D", "config": {"name": "conv2d_4", "trainable": true, "dtype": "float32", "filters": 64, "kernel_size": [3, 3], "strides": [1, 1], "padding": "same", "data_format": "channels_last", "dilation_rate": [1, 1], "groups": 1, "activation": "linear", "use_bias": true, "kernel_initializer": {"class_name": "GlorotUniform", "config": {"seed": null}}, "bias_initializer": {"class_name": "Zeros", "config": {}}, "kernel_regularizer": null, "bias_regularizer": null, "activity_regularizer": null, "kernel_constraint": null, "bias_constraint": null}, "name": "conv2d_4", "inbound_nodes": [[["p_re_lu_2", 0, 0, {}]]]}, {"class_name": "BatchNormalization", "config": {"name": "batch_normalization_3", "trainable": true, "dtype": "float32", "axis": [3], "momentum": 0.5, "epsilon": 0.001, "center": true, "scale": true, "beta_initializer": {"class_name": "Zeros", "config": {}}, "gamma_initializer": {"class_name": "Ones", "config": {}}, "moving_mean_initializer": {"class_name": "Zeros", "config": {}}, "moving_variance_initializer": {"class_name": "Ones", "config": {}}, "beta_regularizer": null, "gamma_regularizer": null, "beta_constraint": null, "gamma_constraint": null}, "name": "batch_normalization_3", "inbound_nodes": [[["conv2d_4", 0, 0, {}]]]}, {"class_name": "Add", "config": {"name": "add_1", "trainable": true, "dtype": "float32"}, "name": "add_1", "inbound_nodes": [[["add", 0, 0, {}], ["batch_normalization_3", 0, 0, {}]]]}, {"class_name": "Conv2D", "config": {"name": "conv2d_5", "trainable": true, "dtype": "float32", "filters": 64, "kernel_size": [3, 3], "strides": [1, 1], "padding": "same", "data_format": "channels_last", "dilation_rate": [1, 1], "groups": 1, "activation": "linear", "use_bias": true, "kernel_initializer": {"class_name": "GlorotUniform", "config": {"seed": null}}, "bias_initializer": {"class_name": "Zeros", "config": {}}, "kernel_regularizer": null, "bias_regularizer": null, "activity_regularizer": null, "kernel_constraint": null, "bias_constraint": null}, "name": "conv2d_5", "inbound_nodes": [[["add_1", 0, 0, {}]]]}, {"class_name": "BatchNormalization", "config": {"name": "batch_normalization_4", "trainable": true, "dtype": "float32", "axis": [3], "momentum": 0.5, "epsilon": 0.001, "center": true, "scale": true, "beta_initializer": {"class_name": "Zeros", "config": {}}, "gamma_initializer": {"class_name": "Ones", "config": {}}, "moving_mean_initializer": {"class_name": "Zeros", "config": {}}, "moving_variance_initializer": {"class_name": "Ones", "config": {}}, "beta_regularizer": null, "gamma_regularizer": null, "beta_constraint": null, "gamma_constraint": null}, "name": "batch_normalization_4", "inbound_nodes": [[["conv2d_5", 0, 0, {}]]]}, {"class_name": "PReLU", "config": {"name": "p_re_lu_3", "trainable": true, "dtype": "float32", "alpha_initializer": {"class_name": "Zeros", "config": {}}, "alpha_regularizer": null, "alpha_constraint": null, "shared_axes": [1, 2]}, "name": "p_re_lu_3", "inbound_nodes": [[["batch_normalization_4", 0, 0, {}]]]}, {"class_name": "Conv2D", "config": {"name": "conv2d_6", "trainable": true, "dtype": "float32", "filters": 64, "kernel_size": [3, 3], "strides": [1, 1], "padding": "same", "data_format": "channels_last", "dilation_rate": [1, 1], "groups": 1, "activation": "linear", "use_bias": true, "kernel_initializer": {"class_name": "GlorotUniform", "config": {"seed": null}}, "bias_initializer": {"class_name": "Zeros", "config": {}}, "kernel_regularizer": null, "bias_regularizer": null, "activity_regularizer": null, "kernel_constraint": null, "bias_constraint": null}, "name": "conv2d_6", "inbound_nodes": [[["p_re_lu_3", 0, 0, {}]]]}, {"class_name": "BatchNormalization", "config": {"name": "batch_normalization_5", "trainable": true, "dtype": "float32", "axis": [3], "momentum": 0.5, "epsilon": 0.001, "center": true, "scale": true, "beta_initializer": {"class_name": "Zeros", "config": {}}, "gamma_initializer": {"class_name": "Ones", "config": {}}, "moving_mean_initializer": {"class_name": "Zeros", "config": {}}, "moving_variance_initializer": {"class_name": "Ones", "config": {}}, "beta_regularizer": null, "gamma_regularizer": null, "beta_constraint": null, "gamma_constraint": null}, "name": "batch_normalization_5", "inbound_nodes": [[["conv2d_6", 0, 0, {}]]]}, {"class_name": "Add", "config": {"name": "add_2", "trainable": true, "dtype": "float32"}, "name": "add_2", "inbound_nodes": [[["add_1", 0, 0, {}], ["batch_normalization_5", 0, 0, {}]]]}, {"class_name": "Conv2D", "config": {"name": "conv2d_7", "trainable": true, "dtype": "float32", "filters": 64, "kernel_size": [3, 3], "strides": [1, 1], "padding": "same", "data_format": "channels_last", "dilation_rate": [1, 1], "groups": 1, "activation": "linear", "use_bias": true, "kernel_initializer": {"class_name": "GlorotUniform", "config": {"seed": null}}, "bias_initializer": {"class_name": "Zeros", "config": {}}, "kernel_regularizer": null, "bias_regularizer": null, "activity_regularizer": null, "kernel_constraint": null, "bias_constraint": null}, "name": "conv2d_7", "inbound_nodes": [[["add_2", 0, 0, {}]]]}, {"class_name": "BatchNormalization", "config": {"name": "batch_normalization_6", "trainable": true, "dtype": "float32", "axis": [3], "momentum": 0.5, "epsilon": 0.001, "center": true, "scale": true, "beta_initializer": {"class_name": "Zeros", "config": {}}, "gamma_initializer": {"class_name": "Ones", "config": {}}, "moving_mean_initializer": {"class_name": "Zeros", "config": {}}, "moving_variance_initializer": {"class_name": "Ones", "config": {}}, "beta_regularizer": null, "gamma_regularizer": null, "beta_constraint": null, "gamma_constraint": null}, "name": "batch_normalization_6", "inbound_nodes": [[["conv2d_7", 0, 0, {}]]]}, {"class_name": "PReLU", "config": {"name": "p_re_lu_4", "trainable": true, "dtype": "float32", "alpha_initializer": {"class_name": "Zeros", "config": {}}, "alpha_regularizer": null, "alpha_constraint": null, "shared_axes": [1, 2]}, "name": "p_re_lu_4", "inbound_nodes": [[["batch_normalization_6", 0, 0, {}]]]}, {"class_name": "Conv2D", "config": {"name": "conv2d_8", "trainable": true, "dtype": "float32", "filters": 64, "kernel_size": [3, 3], "strides": [1, 1], "padding": "same", "data_format": "channels_last", "dilation_rate": [1, 1], "groups": 1, "activation": "linear", "use_bias": true, "kernel_initializer": {"class_name": "GlorotUniform", "config": {"seed": null}}, "bias_initializer": {"class_name": "Zeros", "config": {}}, "kernel_regularizer": null, "bias_regularizer": null, "activity_regularizer": null, "kernel_constraint": null, "bias_constraint": null}, "name": "conv2d_8", "inbound_nodes": [[["p_re_lu_4", 0, 0, {}]]]}, {"class_name": "BatchNormalization", "config": {"name": "batch_normalization_7", "trainable": true, "dtype": "float32", "axis": [3], "momentum": 0.5, "epsilon": 0.001, "center": true, "scale": true, "beta_initializer": {"class_name": "Zeros", "config": {}}, "gamma_initializer": {"class_name": "Ones", "config": {}}, "moving_mean_initializer": {"class_name": "Zeros", "config": {}}, "moving_variance_initializer": {"class_name": "Ones", "config": {}}, "beta_regularizer": null, "gamma_regularizer": null, "beta_constraint": null, "gamma_constraint": null}, "name": "batch_normalization_7", "inbound_nodes": [[["conv2d_8", 0, 0, {}]]]}, {"class_name": "Add", "config": {"name": "add_3", "trainable": true, "dtype": "float32"}, "name": "add_3", "inbound_nodes": [[["add_2", 0, 0, {}], ["batch_normalization_7", 0, 0, {}]]]}, {"class_name": "Conv2D", "config": {"name": "conv2d_9", "trainable": true, "dtype": "float32", "filters": 64, "kernel_size": [3, 3], "strides": [1, 1], "padding": "same", "data_format": "channels_last", "dilation_rate": [1, 1], "groups": 1, "activation": "linear", "use_bias": true, "kernel_initializer": {"class_name": "GlorotUniform", "config": {"seed": null}}, "bias_initializer": {"class_name": "Zeros", "config": {}}, "kernel_regularizer": null, "bias_regularizer": null, "activity_regularizer": null, "kernel_constraint": null, "bias_constraint": null}, "name": "conv2d_9", "inbound_nodes": [[["add_3", 0, 0, {}]]]}, {"class_name": "BatchNormalization", "config": {"name": "batch_normalization_8", "trainable": true, "dtype": "float32", "axis": [3], "momentum": 0.5, "epsilon": 0.001, "center": true, "scale": true, "beta_initializer": {"class_name": "Zeros", "config": {}}, "gamma_initializer": {"class_name": "Ones", "config": {}}, "moving_mean_initializer": {"class_name": "Zeros", "config": {}}, "moving_variance_initializer": {"class_name": "Ones", "config": {}}, "beta_regularizer": null, "gamma_regularizer": null, "beta_constraint": null, "gamma_constraint": null}, "name": "batch_normalization_8", "inbound_nodes": [[["conv2d_9", 0, 0, {}]]]}, {"class_name": "PReLU", "config": {"name": "p_re_lu_5", "trainable": true, "dtype": "float32", "alpha_initializer": {"class_name": "Zeros", "config": {}}, "alpha_regularizer": null, "alpha_constraint": null, "shared_axes": [1, 2]}, "name": "p_re_lu_5", "inbound_nodes": [[["batch_normalization_8", 0, 0, {}]]]}, {"class_name": "Conv2D", "config": {"name": "conv2d_10", "trainable": true, "dtype": "float32", "filters": 64, "kernel_size": [3, 3], "strides": [1, 1], "padding": "same", "data_format": "channels_last", "dilation_rate": [1, 1], "groups": 1, "activation": "linear", "use_bias": true, "kernel_initializer": {"class_name": "GlorotUniform", "config": {"seed": null}}, "bias_initializer": {"class_name": "Zeros", "config": {}}, "kernel_regularizer": null, "bias_regularizer": null, "activity_regularizer": null, "kernel_constraint": null, "bias_constraint": null}, "name": "conv2d_10", "inbound_nodes": [[["p_re_lu_5", 0, 0, {}]]]}, {"class_name": "BatchNormalization", "config": {"name": "batch_normalization_9", "trainable": true, "dtype": "float32", "axis": [3], "momentum": 0.5, "epsilon": 0.001, "center": true, "scale": true, "beta_initializer": {"class_name": "Zeros", "config": {}}, "gamma_initializer": {"class_name": "Ones", "config": {}}, "moving_mean_initializer": {"class_name": "Zeros", "config": {}}, "moving_variance_initializer": {"class_name": "Ones", "config": {}}, "beta_regularizer": null, "gamma_regularizer": null, "beta_constraint": null, "gamma_constraint": null}, "name": "batch_normalization_9", "inbound_nodes": [[["conv2d_10", 0, 0, {}]]]}, {"class_name": "Add", "config": {"name": "add_4", "trainable": true, "dtype": "float32"}, "name": "add_4", "inbound_nodes": [[["add_3", 0, 0, {}], ["batch_normalization_9", 0, 0, {}]]]}, {"class_name": "Conv2D", "config": {"name": "conv2d_11", "trainable": true, "dtype": "float32", "filters": 64, "kernel_size": [3, 3], "strides": [1, 1], "padding": "same", "data_format": "channels_last", "dilation_rate": [1, 1], "groups": 1, "activation": "linear", "use_bias": true, "kernel_initializer": {"class_name": "GlorotUniform", "config": {"seed": null}}, "bias_initializer": {"class_name": "Zeros", "config": {}}, "kernel_regularizer": null, "bias_regularizer": null, "activity_regularizer": null, "kernel_constraint": null, "bias_constraint": null}, "name": "conv2d_11", "inbound_nodes": [[["add_4", 0, 0, {}]]]}, {"class_name": "BatchNormalization", "config": {"name": "batch_normalization_10", "trainable": true, "dtype": "float32", "axis": [3], "momentum": 0.5, "epsilon": 0.001, "center": true, "scale": true, "beta_initializer": {"class_name": "Zeros", "config": {}}, "gamma_initializer": {"class_name": "Ones", "config": {}}, "moving_mean_initializer": {"class_name": "Zeros", "config": {}}, "moving_variance_initializer": {"class_name": "Ones", "config": {}}, "beta_regularizer": null, "gamma_regularizer": null, "beta_constraint": null, "gamma_constraint": null}, "name": "batch_normalization_10", "inbound_nodes": [[["conv2d_11", 0, 0, {}]]]}, {"class_name": "PReLU", "config": {"name": "p_re_lu_6", "trainable": true, "dtype": "float32", "alpha_initializer": {"class_name": "Zeros", "config": {}}, "alpha_regularizer": null, "alpha_constraint": null, "shared_axes": [1, 2]}, "name": "p_re_lu_6", "inbound_nodes": [[["batch_normalization_10", 0, 0, {}]]]}, {"class_name": "Conv2D", "config": {"name": "conv2d_12", "trainable": true, "dtype": "float32", "filters": 64, "kernel_size": [3, 3], "strides": [1, 1], "padding": "same", "data_format": "channels_last", "dilation_rate": [1, 1], "groups": 1, "activation": "linear", "use_bias": true, "kernel_initializer": {"class_name": "GlorotUniform", "config": {"seed": null}}, "bias_initializer": {"class_name": "Zeros", "config": {}}, "kernel_regularizer": null, "bias_regularizer": null, "activity_regularizer": null, "kernel_constraint": null, "bias_constraint": null}, "name": "conv2d_12", "inbound_nodes": [[["p_re_lu_6", 0, 0, {}]]]}, {"class_name": "BatchNormalization", "config": {"name": "batch_normalization_11", "trainable": true, "dtype": "float32", "axis": [3], "momentum": 0.5, "epsilon": 0.001, "center": true, "scale": true, "beta_initializer": {"class_name": "Zeros", "config": {}}, "gamma_initializer": {"class_name": "Ones", "config": {}}, "moving_mean_initializer": {"class_name": "Zeros", "config": {}}, "moving_variance_initializer": {"class_name": "Ones", "config": {}}, "beta_regularizer": null, "gamma_regularizer": null, "beta_constraint": null, "gamma_constraint": null}, "name": "batch_normalization_11", "inbound_nodes": [[["conv2d_12", 0, 0, {}]]]}, {"class_name": "Add", "config": {"name": "add_5", "trainable": true, "dtype": "float32"}, "name": "add_5", "inbound_nodes": [[["add_4", 0, 0, {}], ["batch_normalization_11", 0, 0, {}]]]}, {"class_name": "Conv2D", "config": {"name": "conv2d_13", "trainable": true, "dtype": "float32", "filters": 64, "kernel_size": [3, 3], "strides": [1, 1], "padding": "same", "data_format": "channels_last", "dilation_rate": [1, 1], "groups": 1, "activation": "linear", "use_bias": true, "kernel_initializer": {"class_name": "GlorotUniform", "config": {"seed": null}}, "bias_initializer": {"class_name": "Zeros", "config": {}}, "kernel_regularizer": null, "bias_regularizer": null, "activity_regularizer": null, "kernel_constraint": null, "bias_constraint": null}, "name": "conv2d_13", "inbound_nodes": [[["add_5", 0, 0, {}]]]}, {"class_name": "BatchNormalization", "config": {"name": "batch_normalization_12", "trainable": true, "dtype": "float32", "axis": [3], "momentum": 0.5, "epsilon": 0.001, "center": true, "scale": true, "beta_initializer": {"class_name": "Zeros", "config": {}}, "gamma_initializer": {"class_name": "Ones", "config": {}}, "moving_mean_initializer": {"class_name": "Zeros", "config": {}}, "moving_variance_initializer": {"class_name": "Ones", "config": {}}, "beta_regularizer": null, "gamma_regularizer": null, "beta_constraint": null, "gamma_constraint": null}, "name": "batch_normalization_12", "inbound_nodes": [[["conv2d_13", 0, 0, {}]]]}, {"class_name": "PReLU", "config": {"name": "p_re_lu_7", "trainable": true, "dtype": "float32", "alpha_initializer": {"class_name": "Zeros", "config": {}}, "alpha_regularizer": null, "alpha_constraint": null, "shared_axes": [1, 2]}, "name": "p_re_lu_7", "inbound_nodes": [[["batch_normalization_12", 0, 0, {}]]]}, {"class_name": "Conv2D", "config": {"name": "conv2d_14", "trainable": true, "dtype": "float32", "filters": 64, "kernel_size": [3, 3], "strides": [1, 1], "padding": "same", "data_format": "channels_last", "dilation_rate": [1, 1], "groups": 1, "activation": "linear", "use_bias": true, "kernel_initializer": {"class_name": "GlorotUniform", "config": {"seed": null}}, "bias_initializer": {"class_name": "Zeros", "config": {}}, "kernel_regularizer": null, "bias_regularizer": null, "activity_regularizer": null, "kernel_constraint": null, "bias_constraint": null}, "name": "conv2d_14", "inbound_nodes": [[["p_re_lu_7", 0, 0, {}]]]}, {"class_name": "BatchNormalization", "config": {"name": "batch_normalization_13", "trainable": true, "dtype": "float32", "axis": [3], "momentum": 0.5, "epsilon": 0.001, "center": true, "scale": true, "beta_initializer": {"class_name": "Zeros", "config": {}}, "gamma_initializer": {"class_name": "Ones", "config": {}}, "moving_mean_initializer": {"class_name": "Zeros", "config": {}}, "moving_variance_initializer": {"class_name": "Ones", "config": {}}, "beta_regularizer": null, "gamma_regularizer": null, "beta_constraint": null, "gamma_constraint": null}, "name": "batch_normalization_13", "inbound_nodes": [[["conv2d_14", 0, 0, {}]]]}, {"class_name": "Add", "config": {"name": "add_6", "trainable": true, "dtype": "float32"}, "name": "add_6", "inbound_nodes": [[["add_5", 0, 0, {}], ["batch_normalization_13", 0, 0, {}]]]}, {"class_name": "Conv2D", "config": {"name": "conv2d_15", "trainable": true, "dtype": "float32", "filters": 64, "kernel_size": [3, 3], "strides": [1, 1], "padding": "same", "data_format": "channels_last", "dilation_rate": [1, 1], "groups": 1, "activation": "linear", "use_bias": true, "kernel_initializer": {"class_name": "GlorotUniform", "config": {"seed": null}}, "bias_initializer": {"class_name": "Zeros", "config": {}}, "kernel_regularizer": null, "bias_regularizer": null, "activity_regularizer": null, "kernel_constraint": null, "bias_constraint": null}, "name": "conv2d_15", "inbound_nodes": [[["add_6", 0, 0, {}]]]}, {"class_name": "BatchNormalization", "config": {"name": "batch_normalization_14", "trainable": true, "dtype": "float32", "axis": [3], "momentum": 0.5, "epsilon": 0.001, "center": true, "scale": true, "beta_initializer": {"class_name": "Zeros", "config": {}}, "gamma_initializer": {"class_name": "Ones", "config": {}}, "moving_mean_initializer": {"class_name": "Zeros", "config": {}}, "moving_variance_initializer": {"class_name": "Ones", "config": {}}, "beta_regularizer": null, "gamma_regularizer": null, "beta_constraint": null, "gamma_constraint": null}, "name": "batch_normalization_14", "inbound_nodes": [[["conv2d_15", 0, 0, {}]]]}, {"class_name": "PReLU", "config": {"name": "p_re_lu_8", "trainable": true, "dtype": "float32", "alpha_initializer": {"class_name": "Zeros", "config": {}}, "alpha_regularizer": null, "alpha_constraint": null, "shared_axes": [1, 2]}, "name": "p_re_lu_8", "inbound_nodes": [[["batch_normalization_14", 0, 0, {}]]]}, {"class_name": "Conv2D", "config": {"name": "conv2d_16", "trainable": true, "dtype": "float32", "filters": 64, "kernel_size": [3, 3], "strides": [1, 1], "padding": "same", "data_format": "channels_last", "dilation_rate": [1, 1], "groups": 1, "activation": "linear", "use_bias": true, "kernel_initializer": {"class_name": "GlorotUniform", "config": {"seed": null}}, "bias_initializer": {"class_name": "Zeros", "config": {}}, "kernel_regularizer": null, "bias_regularizer": null, "activity_regularizer": null, "kernel_constraint": null, "bias_constraint": null}, "name": "conv2d_16", "inbound_nodes": [[["p_re_lu_8", 0, 0, {}]]]}, {"class_name": "BatchNormalization", "config": {"name": "batch_normalization_15", "trainable": true, "dtype": "float32", "axis": [3], "momentum": 0.5, "epsilon": 0.001, "center": true, "scale": true, "beta_initializer": {"class_name": "Zeros", "config": {}}, "gamma_initializer": {"class_name": "Ones", "config": {}}, "moving_mean_initializer": {"class_name": "Zeros", "config": {}}, "moving_variance_initializer": {"class_name": "Ones", "config": {}}, "beta_regularizer": null, "gamma_regularizer": null, "beta_constraint": null, "gamma_constraint": null}, "name": "batch_normalization_15", "inbound_nodes": [[["conv2d_16", 0, 0, {}]]]}, {"class_name": "Add", "config": {"name": "add_7", "trainable": true, "dtype": "float32"}, "name": "add_7", "inbound_nodes": [[["add_6", 0, 0, {}], ["batch_normalization_15", 0, 0, {}]]]}, {"class_name": "Conv2D", "config": {"name": "conv2d_17", "trainable": true, "dtype": "float32", "filters": 64, "kernel_size": [3, 3], "strides": [1, 1], "padding": "same", "data_format": "channels_last", "dilation_rate": [1, 1], "groups": 1, "activation": "linear", "use_bias": true, "kernel_initializer": {"class_name": "GlorotUniform", "config": {"seed": null}}, "bias_initializer": {"class_name": "Zeros", "config": {}}, "kernel_regularizer": null, "bias_regularizer": null, "activity_regularizer": null, "kernel_constraint": null, "bias_constraint": null}, "name": "conv2d_17", "inbound_nodes": [[["add_7", 0, 0, {}]]]}, {"class_name": "BatchNormalization", "config": {"name": "batch_normalization_16", "trainable": true, "dtype": "float32", "axis": [3], "momentum": 0.5, "epsilon": 0.001, "center": true, "scale": true, "beta_initializer": {"class_name": "Zeros", "config": {}}, "gamma_initializer": {"class_name": "Ones", "config": {}}, "moving_mean_initializer": {"class_name": "Zeros", "config": {}}, "moving_variance_initializer": {"class_name": "Ones", "config": {}}, "beta_regularizer": null, "gamma_regularizer": null, "beta_constraint": null, "gamma_constraint": null}, "name": "batch_normalization_16", "inbound_nodes": [[["conv2d_17", 0, 0, {}]]]}, {"class_name": "PReLU", "config": {"name": "p_re_lu_9", "trainable": true, "dtype": "float32", "alpha_initializer": {"class_name": "Zeros", "config": {}}, "alpha_regularizer": null, "alpha_constraint": null, "shared_axes": [1, 2]}, "name": "p_re_lu_9", "inbound_nodes": [[["batch_normalization_16", 0, 0, {}]]]}, {"class_name": "Conv2D", "config": {"name": "conv2d_18", "trainable": true, "dtype": "float32", "filters": 64, "kernel_size": [3, 3], "strides": [1, 1], "padding": "same", "data_format": "channels_last", "dilation_rate": [1, 1], "groups": 1, "activation": "linear", "use_bias": true, "kernel_initializer": {"class_name": "GlorotUniform", "config": {"seed": null}}, "bias_initializer": {"class_name": "Zeros", "config": {}}, "kernel_regularizer": null, "bias_regularizer": null, "activity_regularizer": null, "kernel_constraint": null, "bias_constraint": null}, "name": "conv2d_18", "inbound_nodes": [[["p_re_lu_9", 0, 0, {}]]]}, {"class_name": "BatchNormalization", "config": {"name": "batch_normalization_17", "trainable": true, "dtype": "float32", "axis": [3], "momentum": 0.5, "epsilon": 0.001, "center": true, "scale": true, "beta_initializer": {"class_name": "Zeros", "config": {}}, "gamma_initializer": {"class_name": "Ones", "config": {}}, "moving_mean_initializer": {"class_name": "Zeros", "config": {}}, "moving_variance_initializer": {"class_name": "Ones", "config": {}}, "beta_regularizer": null, "gamma_regularizer": null, "beta_constraint": null, "gamma_constraint": null}, "name": "batch_normalization_17", "inbound_nodes": [[["conv2d_18", 0, 0, {}]]]}, {"class_name": "Add", "config": {"name": "add_8", "trainable": true, "dtype": "float32"}, "name": "add_8", "inbound_nodes": [[["add_7", 0, 0, {}], ["batch_normalization_17", 0, 0, {}]]]}, {"class_name": "Conv2D", "config": {"name": "conv2d_19", "trainable": true, "dtype": "float32", "filters": 64, "kernel_size": [3, 3], "strides": [1, 1], "padding": "same", "data_format": "channels_last", "dilation_rate": [1, 1], "groups": 1, "activation": "linear", "use_bias": true, "kernel_initializer": {"class_name": "GlorotUniform", "config": {"seed": null}}, "bias_initializer": {"class_name": "Zeros", "config": {}}, "kernel_regularizer": null, "bias_regularizer": null, "activity_regularizer": null, "kernel_constraint": null, "bias_constraint": null}, "name": "conv2d_19", "inbound_nodes": [[["add_8", 0, 0, {}]]]}, {"class_name": "BatchNormalization", "config": {"name": "batch_normalization_18", "trainable": true, "dtype": "float32", "axis": [3], "momentum": 0.5, "epsilon": 0.001, "center": true, "scale": true, "beta_initializer": {"class_name": "Zeros", "config": {}}, "gamma_initializer": {"class_name": "Ones", "config": {}}, "moving_mean_initializer": {"class_name": "Zeros", "config": {}}, "moving_variance_initializer": {"class_name": "Ones", "config": {}}, "beta_regularizer": null, "gamma_regularizer": null, "beta_constraint": null, "gamma_constraint": null}, "name": "batch_normalization_18", "inbound_nodes": [[["conv2d_19", 0, 0, {}]]]}, {"class_name": "PReLU", "config": {"name": "p_re_lu_10", "trainable": true, "dtype": "float32", "alpha_initializer": {"class_name": "Zeros", "config": {}}, "alpha_regularizer": null, "alpha_constraint": null, "shared_axes": [1, 2]}, "name": "p_re_lu_10", "inbound_nodes": [[["batch_normalization_18", 0, 0, {}]]]}, {"class_name": "Conv2D", "config": {"name": "conv2d_20", "trainable": true, "dtype": "float32", "filters": 64, "kernel_size": [3, 3], "strides": [1, 1], "padding": "same", "data_format": "channels_last", "dilation_rate": [1, 1], "groups": 1, "activation": "linear", "use_bias": true, "kernel_initializer": {"class_name": "GlorotUniform", "config": {"seed": null}}, "bias_initializer": {"class_name": "Zeros", "config": {}}, "kernel_regularizer": null, "bias_regularizer": null, "activity_regularizer": null, "kernel_constraint": null, "bias_constraint": null}, "name": "conv2d_20", "inbound_nodes": [[["p_re_lu_10", 0, 0, {}]]]}, {"class_name": "BatchNormalization", "config": {"name": "batch_normalization_19", "trainable": true, "dtype": "float32", "axis": [3], "momentum": 0.5, "epsilon": 0.001, "center": true, "scale": true, "beta_initializer": {"class_name": "Zeros", "config": {}}, "gamma_initializer": {"class_name": "Ones", "config": {}}, "moving_mean_initializer": {"class_name": "Zeros", "config": {}}, "moving_variance_initializer": {"class_name": "Ones", "config": {}}, "beta_regularizer": null, "gamma_regularizer": null, "beta_constraint": null, "gamma_constraint": null}, "name": "batch_normalization_19", "inbound_nodes": [[["conv2d_20", 0, 0, {}]]]}, {"class_name": "Add", "config": {"name": "add_9", "trainable": true, "dtype": "float32"}, "name": "add_9", "inbound_nodes": [[["add_8", 0, 0, {}], ["batch_normalization_19", 0, 0, {}]]]}, {"class_name": "Conv2D", "config": {"name": "conv2d_21", "trainable": true, "dtype": "float32", "filters": 64, "kernel_size": [3, 3], "strides": [1, 1], "padding": "same", "data_format": "channels_last", "dilation_rate": [1, 1], "groups": 1, "activation": "linear", "use_bias": true, "kernel_initializer": {"class_name": "GlorotUniform", "config": {"seed": null}}, "bias_initializer": {"class_name": "Zeros", "config": {}}, "kernel_regularizer": null, "bias_regularizer": null, "activity_regularizer": null, "kernel_constraint": null, "bias_constraint": null}, "name": "conv2d_21", "inbound_nodes": [[["add_9", 0, 0, {}]]]}, {"class_name": "BatchNormalization", "config": {"name": "batch_normalization_20", "trainable": true, "dtype": "float32", "axis": [3], "momentum": 0.5, "epsilon": 0.001, "center": true, "scale": true, "beta_initializer": {"class_name": "Zeros", "config": {}}, "gamma_initializer": {"class_name": "Ones", "config": {}}, "moving_mean_initializer": {"class_name": "Zeros", "config": {}}, "moving_variance_initializer": {"class_name": "Ones", "config": {}}, "beta_regularizer": null, "gamma_regularizer": null, "beta_constraint": null, "gamma_constraint": null}, "name": "batch_normalization_20", "inbound_nodes": [[["conv2d_21", 0, 0, {}]]]}, {"class_name": "PReLU", "config": {"name": "p_re_lu_11", "trainable": true, "dtype": "float32", "alpha_initializer": {"class_name": "Zeros", "config": {}}, "alpha_regularizer": null, "alpha_constraint": null, "shared_axes": [1, 2]}, "name": "p_re_lu_11", "inbound_nodes": [[["batch_normalization_20", 0, 0, {}]]]}, {"class_name": "Conv2D", "config": {"name": "conv2d_22", "trainable": true, "dtype": "float32", "filters": 64, "kernel_size": [3, 3], "strides": [1, 1], "padding": "same", "data_format": "channels_last", "dilation_rate": [1, 1], "groups": 1, "activation": "linear", "use_bias": true, "kernel_initializer": {"class_name": "GlorotUniform", "config": {"seed": null}}, "bias_initializer": {"class_name": "Zeros", "config": {}}, "kernel_regularizer": null, "bias_regularizer": null, "activity_regularizer": null, "kernel_constraint": null, "bias_constraint": null}, "name": "conv2d_22", "inbound_nodes": [[["p_re_lu_11", 0, 0, {}]]]}, {"class_name": "BatchNormalization", "config": {"name": "batch_normalization_21", "trainable": true, "dtype": "float32", "axis": [3], "momentum": 0.5, "epsilon": 0.001, "center": true, "scale": true, "beta_initializer": {"class_name": "Zeros", "config": {}}, "gamma_initializer": {"class_name": "Ones", "config": {}}, "moving_mean_initializer": {"class_name": "Zeros", "config": {}}, "moving_variance_initializer": {"class_name": "Ones", "config": {}}, "beta_regularizer": null, "gamma_regularizer": null, "beta_constraint": null, "gamma_constraint": null}, "name": "batch_normalization_21", "inbound_nodes": [[["conv2d_22", 0, 0, {}]]]}, {"class_name": "Add", "config": {"name": "add_10", "trainable": true, "dtype": "float32"}, "name": "add_10", "inbound_nodes": [[["add_9", 0, 0, {}], ["batch_normalization_21", 0, 0, {}]]]}, {"class_name": "Conv2D", "config": {"name": "conv2d_23", "trainable": true, "dtype": "float32", "filters": 64, "kernel_size": [3, 3], "strides": [1, 1], "padding": "same", "data_format": "channels_last", "dilation_rate": [1, 1], "groups": 1, "activation": "linear", "use_bias": true, "kernel_initializer": {"class_name": "GlorotUniform", "config": {"seed": null}}, "bias_initializer": {"class_name": "Zeros", "config": {}}, "kernel_regularizer": null, "bias_regularizer": null, "activity_regularizer": null, "kernel_constraint": null, "bias_constraint": null}, "name": "conv2d_23", "inbound_nodes": [[["add_10", 0, 0, {}]]]}, {"class_name": "BatchNormalization", "config": {"name": "batch_normalization_22", "trainable": true, "dtype": "float32", "axis": [3], "momentum": 0.5, "epsilon": 0.001, "center": true, "scale": true, "beta_initializer": {"class_name": "Zeros", "config": {}}, "gamma_initializer": {"class_name": "Ones", "config": {}}, "moving_mean_initializer": {"class_name": "Zeros", "config": {}}, "moving_variance_initializer": {"class_name": "Ones", "config": {}}, "beta_regularizer": null, "gamma_regularizer": null, "beta_constraint": null, "gamma_constraint": null}, "name": "batch_normalization_22", "inbound_nodes": [[["conv2d_23", 0, 0, {}]]]}, {"class_name": "PReLU", "config": {"name": "p_re_lu_12", "trainable": true, "dtype": "float32", "alpha_initializer": {"class_name": "Zeros", "config": {}}, "alpha_regularizer": null, "alpha_constraint": null, "shared_axes": [1, 2]}, "name": "p_re_lu_12", "inbound_nodes": [[["batch_normalization_22", 0, 0, {}]]]}, {"class_name": "Conv2D", "config": {"name": "conv2d_24", "trainable": true, "dtype": "float32", "filters": 64, "kernel_size": [3, 3], "strides": [1, 1], "padding": "same", "data_format": "channels_last", "dilation_rate": [1, 1], "groups": 1, "activation": "linear", "use_bias": true, "kernel_initializer": {"class_name": "GlorotUniform", "config": {"seed": null}}, "bias_initializer": {"class_name": "Zeros", "config": {}}, "kernel_regularizer": null, "bias_regularizer": null, "activity_regularizer": null, "kernel_constraint": null, "bias_constraint": null}, "name": "conv2d_24", "inbound_nodes": [[["p_re_lu_12", 0, 0, {}]]]}, {"class_name": "BatchNormalization", "config": {"name": "batch_normalization_23", "trainable": true, "dtype": "float32", "axis": [3], "momentum": 0.5, "epsilon": 0.001, "center": true, "scale": true, "beta_initializer": {"class_name": "Zeros", "config": {}}, "gamma_initializer": {"class_name": "Ones", "config": {}}, "moving_mean_initializer": {"class_name": "Zeros", "config": {}}, "moving_variance_initializer": {"class_name": "Ones", "config": {}}, "beta_regularizer": null, "gamma_regularizer": null, "beta_constraint": null, "gamma_constraint": null}, "name": "batch_normalization_23", "inbound_nodes": [[["conv2d_24", 0, 0, {}]]]}, {"class_name": "Add", "config": {"name": "add_11", "trainable": true, "dtype": "float32"}, "name": "add_11", "inbound_nodes": [[["add_10", 0, 0, {}], ["batch_normalization_23", 0, 0, {}]]]}, {"class_name": "Conv2D", "config": {"name": "conv2d_25", "trainable": true, "dtype": "float32", "filters": 64, "kernel_size": [3, 3], "strides": [1, 1], "padding": "same", "data_format": "channels_last", "dilation_rate": [1, 1], "groups": 1, "activation": "linear", "use_bias": true, "kernel_initializer": {"class_name": "GlorotUniform", "config": {"seed": null}}, "bias_initializer": {"class_name": "Zeros", "config": {}}, "kernel_regularizer": null, "bias_regularizer": null, "activity_regularizer": null, "kernel_constraint": null, "bias_constraint": null}, "name": "conv2d_25", "inbound_nodes": [[["add_11", 0, 0, {}]]]}, {"class_name": "BatchNormalization", "config": {"name": "batch_normalization_24", "trainable": true, "dtype": "float32", "axis": [3], "momentum": 0.5, "epsilon": 0.001, "center": true, "scale": true, "beta_initializer": {"class_name": "Zeros", "config": {}}, "gamma_initializer": {"class_name": "Ones", "config": {}}, "moving_mean_initializer": {"class_name": "Zeros", "config": {}}, "moving_variance_initializer": {"class_name": "Ones", "config": {}}, "beta_regularizer": null, "gamma_regularizer": null, "beta_constraint": null, "gamma_constraint": null}, "name": "batch_normalization_24", "inbound_nodes": [[["conv2d_25", 0, 0, {}]]]}, {"class_name": "PReLU", "config": {"name": "p_re_lu_13", "trainable": true, "dtype": "float32", "alpha_initializer": {"class_name": "Zeros", "config": {}}, "alpha_regularizer": null, "alpha_constraint": null, "shared_axes": [1, 2]}, "name": "p_re_lu_13", "inbound_nodes": [[["batch_normalization_24", 0, 0, {}]]]}, {"class_name": "Conv2D", "config": {"name": "conv2d_26", "trainable": true, "dtype": "float32", "filters": 64, "kernel_size": [3, 3], "strides": [1, 1], "padding": "same", "data_format": "channels_last", "dilation_rate": [1, 1], "groups": 1, "activation": "linear", "use_bias": true, "kernel_initializer": {"class_name": "GlorotUniform", "config": {"seed": null}}, "bias_initializer": {"class_name": "Zeros", "config": {}}, "kernel_regularizer": null, "bias_regularizer": null, "activity_regularizer": null, "kernel_constraint": null, "bias_constraint": null}, "name": "conv2d_26", "inbound_nodes": [[["p_re_lu_13", 0, 0, {}]]]}, {"class_name": "BatchNormalization", "config": {"name": "batch_normalization_25", "trainable": true, "dtype": "float32", "axis": [3], "momentum": 0.5, "epsilon": 0.001, "center": true, "scale": true, "beta_initializer": {"class_name": "Zeros", "config": {}}, "gamma_initializer": {"class_name": "Ones", "config": {}}, "moving_mean_initializer": {"class_name": "Zeros", "config": {}}, "moving_variance_initializer": {"class_name": "Ones", "config": {}}, "beta_regularizer": null, "gamma_regularizer": null, "beta_constraint": null, "gamma_constraint": null}, "name": "batch_normalization_25", "inbound_nodes": [[["conv2d_26", 0, 0, {}]]]}, {"class_name": "Add", "config": {"name": "add_12", "trainable": true, "dtype": "float32"}, "name": "add_12", "inbound_nodes": [[["add_11", 0, 0, {}], ["batch_normalization_25", 0, 0, {}]]]}, {"class_name": "Conv2D", "config": {"name": "conv2d_27", "trainable": true, "dtype": "float32", "filters": 64, "kernel_size": [3, 3], "strides": [1, 1], "padding": "same", "data_format": "channels_last", "dilation_rate": [1, 1], "groups": 1, "activation": "linear", "use_bias": true, "kernel_initializer": {"class_name": "GlorotUniform", "config": {"seed": null}}, "bias_initializer": {"class_name": "Zeros", "config": {}}, "kernel_regularizer": null, "bias_regularizer": null, "activity_regularizer": null, "kernel_constraint": null, "bias_constraint": null}, "name": "conv2d_27", "inbound_nodes": [[["add_12", 0, 0, {}]]]}, {"class_name": "BatchNormalization", "config": {"name": "batch_normalization_26", "trainable": true, "dtype": "float32", "axis": [3], "momentum": 0.5, "epsilon": 0.001, "center": true, "scale": true, "beta_initializer": {"class_name": "Zeros", "config": {}}, "gamma_initializer": {"class_name": "Ones", "config": {}}, "moving_mean_initializer": {"class_name": "Zeros", "config": {}}, "moving_variance_initializer": {"class_name": "Ones", "config": {}}, "beta_regularizer": null, "gamma_regularizer": null, "beta_constraint": null, "gamma_constraint": null}, "name": "batch_normalization_26", "inbound_nodes": [[["conv2d_27", 0, 0, {}]]]}, {"class_name": "PReLU", "config": {"name": "p_re_lu_14", "trainable": true, "dtype": "float32", "alpha_initializer": {"class_name": "Zeros", "config": {}}, "alpha_regularizer": null, "alpha_constraint": null, "shared_axes": [1, 2]}, "name": "p_re_lu_14", "inbound_nodes": [[["batch_normalization_26", 0, 0, {}]]]}, {"class_name": "Conv2D", "config": {"name": "conv2d_28", "trainable": true, "dtype": "float32", "filters": 64, "kernel_size": [3, 3], "strides": [1, 1], "padding": "same", "data_format": "channels_last", "dilation_rate": [1, 1], "groups": 1, "activation": "linear", "use_bias": true, "kernel_initializer": {"class_name": "GlorotUniform", "config": {"seed": null}}, "bias_initializer": {"class_name": "Zeros", "config": {}}, "kernel_regularizer": null, "bias_regularizer": null, "activity_regularizer": null, "kernel_constraint": null, "bias_constraint": null}, "name": "conv2d_28", "inbound_nodes": [[["p_re_lu_14", 0, 0, {}]]]}, {"class_name": "BatchNormalization", "config": {"name": "batch_normalization_27", "trainable": true, "dtype": "float32", "axis": [3], "momentum": 0.5, "epsilon": 0.001, "center": true, "scale": true, "beta_initializer": {"class_name": "Zeros", "config": {}}, "gamma_initializer": {"class_name": "Ones", "config": {}}, "moving_mean_initializer": {"class_name": "Zeros", "config": {}}, "moving_variance_initializer": {"class_name": "Ones", "config": {}}, "beta_regularizer": null, "gamma_regularizer": null, "beta_constraint": null, "gamma_constraint": null}, "name": "batch_normalization_27", "inbound_nodes": [[["conv2d_28", 0, 0, {}]]]}, {"class_name": "Add", "config": {"name": "add_13", "trainable": true, "dtype": "float32"}, "name": "add_13", "inbound_nodes": [[["add_12", 0, 0, {}], ["batch_normalization_27", 0, 0, {}]]]}, {"class_name": "Conv2D", "config": {"name": "conv2d_29", "trainable": true, "dtype": "float32", "filters": 64, "kernel_size": [3, 3], "strides": [1, 1], "padding": "same", "data_format": "channels_last", "dilation_rate": [1, 1], "groups": 1, "activation": "linear", "use_bias": true, "kernel_initializer": {"class_name": "GlorotUniform", "config": {"seed": null}}, "bias_initializer": {"class_name": "Zeros", "config": {}}, "kernel_regularizer": null, "bias_regularizer": null, "activity_regularizer": null, "kernel_constraint": null, "bias_constraint": null}, "name": "conv2d_29", "inbound_nodes": [[["add_13", 0, 0, {}]]]}, {"class_name": "BatchNormalization", "config": {"name": "batch_normalization_28", "trainable": true, "dtype": "float32", "axis": [3], "momentum": 0.5, "epsilon": 0.001, "center": true, "scale": true, "beta_initializer": {"class_name": "Zeros", "config": {}}, "gamma_initializer": {"class_name": "Ones", "config": {}}, "moving_mean_initializer": {"class_name": "Zeros", "config": {}}, "moving_variance_initializer": {"class_name": "Ones", "config": {}}, "beta_regularizer": null, "gamma_regularizer": null, "beta_constraint": null, "gamma_constraint": null}, "name": "batch_normalization_28", "inbound_nodes": [[["conv2d_29", 0, 0, {}]]]}, {"class_name": "PReLU", "config": {"name": "p_re_lu_15", "trainable": true, "dtype": "float32", "alpha_initializer": {"class_name": "Zeros", "config": {}}, "alpha_regularizer": null, "alpha_constraint": null, "shared_axes": [1, 2]}, "name": "p_re_lu_15", "inbound_nodes": [[["batch_normalization_28", 0, 0, {}]]]}, {"class_name": "Conv2D", "config": {"name": "conv2d_30", "trainable": true, "dtype": "float32", "filters": 64, "kernel_size": [3, 3], "strides": [1, 1], "padding": "same", "data_format": "channels_last", "dilation_rate": [1, 1], "groups": 1, "activation": "linear", "use_bias": true, "kernel_initializer": {"class_name": "GlorotUniform", "config": {"seed": null}}, "bias_initializer": {"class_name": "Zeros", "config": {}}, "kernel_regularizer": null, "bias_regularizer": null, "activity_regularizer": null, "kernel_constraint": null, "bias_constraint": null}, "name": "conv2d_30", "inbound_nodes": [[["p_re_lu_15", 0, 0, {}]]]}, {"class_name": "BatchNormalization", "config": {"name": "batch_normalization_29", "trainable": true, "dtype": "float32", "axis": [3], "momentum": 0.5, "epsilon": 0.001, "center": true, "scale": true, "beta_initializer": {"class_name": "Zeros", "config": {}}, "gamma_initializer": {"class_name": "Ones", "config": {}}, "moving_mean_initializer": {"class_name": "Zeros", "config": {}}, "moving_variance_initializer": {"class_name": "Ones", "config": {}}, "beta_regularizer": null, "gamma_regularizer": null, "beta_constraint": null, "gamma_constraint": null}, "name": "batch_normalization_29", "inbound_nodes": [[["conv2d_30", 0, 0, {}]]]}, {"class_name": "Add", "config": {"name": "add_14", "trainable": true, "dtype": "float32"}, "name": "add_14", "inbound_nodes": [[["add_13", 0, 0, {}], ["batch_normalization_29", 0, 0, {}]]]}, {"class_name": "Conv2D", "config": {"name": "conv2d_31", "trainable": true, "dtype": "float32", "filters": 64, "kernel_size": [3, 3], "strides": [1, 1], "padding": "same", "data_format": "channels_last", "dilation_rate": [1, 1], "groups": 1, "activation": "linear", "use_bias": true, "kernel_initializer": {"class_name": "GlorotUniform", "config": {"seed": null}}, "bias_initializer": {"class_name": "Zeros", "config": {}}, "kernel_regularizer": null, "bias_regularizer": null, "activity_regularizer": null, "kernel_constraint": null, "bias_constraint": null}, "name": "conv2d_31", "inbound_nodes": [[["add_14", 0, 0, {}]]]}, {"class_name": "BatchNormalization", "config": {"name": "batch_normalization_30", "trainable": true, "dtype": "float32", "axis": [3], "momentum": 0.5, "epsilon": 0.001, "center": true, "scale": true, "beta_initializer": {"class_name": "Zeros", "config": {}}, "gamma_initializer": {"class_name": "Ones", "config": {}}, "moving_mean_initializer": {"class_name": "Zeros", "config": {}}, "moving_variance_initializer": {"class_name": "Ones", "config": {}}, "beta_regularizer": null, "gamma_regularizer": null, "beta_constraint": null, "gamma_constraint": null}, "name": "batch_normalization_30", "inbound_nodes": [[["conv2d_31", 0, 0, {}]]]}, {"class_name": "PReLU", "config": {"name": "p_re_lu_16", "trainable": true, "dtype": "float32", "alpha_initializer": {"class_name": "Zeros", "config": {}}, "alpha_regularizer": null, "alpha_constraint": null, "shared_axes": [1, 2]}, "name": "p_re_lu_16", "inbound_nodes": [[["batch_normalization_30", 0, 0, {}]]]}, {"class_name": "Conv2D", "config": {"name": "conv2d_32", "trainable": true, "dtype": "float32", "filters": 64, "kernel_size": [3, 3], "strides": [1, 1], "padding": "same", "data_format": "channels_last", "dilation_rate": [1, 1], "groups": 1, "activation": "linear", "use_bias": true, "kernel_initializer": {"class_name": "GlorotUniform", "config": {"seed": null}}, "bias_initializer": {"class_name": "Zeros", "config": {}}, "kernel_regularizer": null, "bias_regularizer": null, "activity_regularizer": null, "kernel_constraint": null, "bias_constraint": null}, "name": "conv2d_32", "inbound_nodes": [[["p_re_lu_16", 0, 0, {}]]]}, {"class_name": "BatchNormalization", "config": {"name": "batch_normalization_31", "trainable": true, "dtype": "float32", "axis": [3], "momentum": 0.5, "epsilon": 0.001, "center": true, "scale": true, "beta_initializer": {"class_name": "Zeros", "config": {}}, "gamma_initializer": {"class_name": "Ones", "config": {}}, "moving_mean_initializer": {"class_name": "Zeros", "config": {}}, "moving_variance_initializer": {"class_name": "Ones", "config": {}}, "beta_regularizer": null, "gamma_regularizer": null, "beta_constraint": null, "gamma_constraint": null}, "name": "batch_normalization_31", "inbound_nodes": [[["conv2d_32", 0, 0, {}]]]}, {"class_name": "Add", "config": {"name": "add_15", "trainable": true, "dtype": "float32"}, "name": "add_15", "inbound_nodes": [[["add_14", 0, 0, {}], ["batch_normalization_31", 0, 0, {}]]]}, {"class_name": "Conv2D", "config": {"name": "conv2d_33", "trainable": true, "dtype": "float32", "filters": 64, "kernel_size": [3, 3], "strides": [1, 1], "padding": "same", "data_format": "channels_last", "dilation_rate": [1, 1], "groups": 1, "activation": "linear", "use_bias": true, "kernel_initializer": {"class_name": "GlorotUniform", "config": {"seed": null}}, "bias_initializer": {"class_name": "Zeros", "config": {}}, "kernel_regularizer": null, "bias_regularizer": null, "activity_regularizer": null, "kernel_constraint": null, "bias_constraint": null}, "name": "conv2d_33", "inbound_nodes": [[["add_15", 0, 0, {}]]]}, {"class_name": "BatchNormalization", "config": {"name": "batch_normalization_32", "trainable": true, "dtype": "float32", "axis": [3], "momentum": 0.5, "epsilon": 0.001, "center": true, "scale": true, "beta_initializer": {"class_name": "Zeros", "config": {}}, "gamma_initializer": {"class_name": "Ones", "config": {}}, "moving_mean_initializer": {"class_name": "Zeros", "config": {}}, "moving_variance_initializer": {"class_name": "Ones", "config": {}}, "beta_regularizer": null, "gamma_regularizer": null, "beta_constraint": null, "gamma_constraint": null}, "name": "batch_normalization_32", "inbound_nodes": [[["conv2d_33", 0, 0, {}]]]}, {"class_name": "Add", "config": {"name": "add_16", "trainable": true, "dtype": "float32"}, "name": "add_16", "inbound_nodes": [[["batch_normalization_32", 0, 0, {}], ["p_re_lu", 0, 0, {}]]]}, {"class_name": "Conv2D", "config": {"name": "conv2d_34", "trainable": true, "dtype": "float32", "filters": 256, "kernel_size": [3, 3], "strides": [1, 1], "padding": "same", "data_format": "channels_last", "dilation_rate": [1, 1], "groups": 1, "activation": "linear", "use_bias": true, "kernel_initializer": {"class_name": "GlorotUniform", "config": {"seed": null}}, "bias_initializer": {"class_name": "Zeros", "config": {}}, "kernel_regularizer": null, "bias_regularizer": null, "activity_regularizer": null, "kernel_constraint": null, "bias_constraint": null}, "name": "conv2d_34", "inbound_nodes": [[["add_16", 0, 0, {}]]]}, {"class_name": "UpSampling2D", "config": {"name": "up_sampling2d", "trainable": true, "dtype": "float32", "size": [2, 2], "data_format": "channels_last", "interpolation": "nearest"}, "name": "up_sampling2d", "inbound_nodes": [[["conv2d_34", 0, 0, {}]]]}, {"class_name": "PReLU", "config": {"name": "p_re_lu_17", "trainable": true, "dtype": "float32", "alpha_initializer": {"class_name": "Zeros", "config": {}}, "alpha_regularizer": null, "alpha_constraint": null, "shared_axes": [1, 2]}, "name": "p_re_lu_17", "inbound_nodes": [[["up_sampling2d", 0, 0, {}]]]}, {"class_name": "Conv2D", "config": {"name": "conv2d_35", "trainable": true, "dtype": "float32", "filters": 256, "kernel_size": [3, 3], "strides": [1, 1], "padding": "same", "data_format": "channels_last", "dilation_rate": [1, 1], "groups": 1, "activation": "linear", "use_bias": true, "kernel_initializer": {"class_name": "GlorotUniform", "config": {"seed": null}}, "bias_initializer": {"class_name": "Zeros", "config": {}}, "kernel_regularizer": null, "bias_regularizer": null, "activity_regularizer": null, "kernel_constraint": null, "bias_constraint": null}, "name": "conv2d_35", "inbound_nodes": [[["p_re_lu_17", 0, 0, {}]]]}, {"class_name": "UpSampling2D", "config": {"name": "up_sampling2d_1", "trainable": true, "dtype": "float32", "size": [2, 2], "data_format": "channels_last", "interpolation": "nearest"}, "name": "up_sampling2d_1", "inbound_nodes": [[["conv2d_35", 0, 0, {}]]]}, {"class_name": "PReLU", "config": {"name": "p_re_lu_18", "trainable": true, "dtype": "float32", "alpha_initializer": {"class_name": "Zeros", "config": {}}, "alpha_regularizer": null, "alpha_constraint": null, "shared_axes": [1, 2]}, "name": "p_re_lu_18", "inbound_nodes": [[["up_sampling2d_1", 0, 0, {}]]]}, {"class_name": "Conv2D", "config": {"name": "conv2d_36", "trainable": true, "dtype": "float32", "filters": 3, "kernel_size": [9, 9], "strides": [1, 1], "padding": "same", "data_format": "channels_last", "dilation_rate": [1, 1], "groups": 1, "activation": "linear", "use_bias": true, "kernel_initializer": {"class_name": "GlorotUniform", "config": {"seed": null}}, "bias_initializer": {"class_name": "Zeros", "config": {}}, "kernel_regularizer": null, "bias_regularizer": null, "activity_regularizer": null, "kernel_constraint": null, "bias_constraint": null}, "name": "conv2d_36", "inbound_nodes": [[["p_re_lu_18", 0, 0, {}]]]}], "input_layers": [["input_1", 0, 0]], "output_layers": [["conv2d_36", 0, 0]]}}}, "weightsManifest": [{"paths": ["group1-shard1of2.bin", "group1-shard2of2.bin"], "weights": [{"name": "batch_normalization/gamma", "shape": [64], "dtype": "float32"}, {"name": "batch_normalization/beta", "shape": [64], "dtype": "float32"}, {"name": "batch_normalization/moving_mean", "shape": [64], "dtype": "float32"}, {"name": "batch_normalization/moving_variance", "shape": [64], "dtype": "float32"}, {"name": "batch_normalization_1/gamma", "shape": [64], "dtype": "float32"}, {"name": "batch_normalization_1/beta", "shape": [64], "dtype": "float32"}, {"name": "batch_normalization_1/moving_mean", "shape": [64], "dtype": "float32"}, {"name": "batch_normalization_1/moving_variance", "shape": [64], "dtype": "float32"}, {"name": "batch_normalization_10/gamma", "shape": [64], "dtype": "float32"}, {"name": "batch_normalization_10/beta", "shape": [64], "dtype": "float32"}, {"name": "batch_normalization_10/moving_mean", "shape": [64], "dtype": "float32"}, {"name": "batch_normalization_10/moving_variance", "shape": [64], "dtype": "float32"}, {"name": "batch_normalization_11/gamma", "shape": [64], "dtype": "float32"}, {"name": "batch_normalization_11/beta", "shape": [64], "dtype": "float32"}, {"name": "batch_normalization_11/moving_mean", "shape": [64], "dtype": "float32"}, {"name": "batch_normalization_11/moving_variance", "shape": [64], "dtype": "float32"}, {"name": "batch_normalization_12/gamma", "shape": [64], "dtype": "float32"}, {"name": "batch_normalization_12/beta", "shape": [64], "dtype": "float32"}, {"name": "batch_normalization_12/moving_mean", "shape": [64], "dtype": "float32"}, {"name": "batch_normalization_12/moving_variance", "shape": [64], "dtype": "float32"}, {"name": "batch_normalization_13/gamma", "shape": [64], "dtype": "float32"}, {"name": "batch_normalization_13/beta", "shape": [64], "dtype": "float32"}, {"name": "batch_normalization_13/moving_mean", "shape": [64], "dtype": "float32"}, {"name": "batch_normalization_13/moving_variance", "shape": [64], "dtype": "float32"}, {"name": "batch_normalization_14/gamma", "shape": [64], "dtype": "float32"}, {"name": "batch_normalization_14/beta", "shape": [64], "dtype": "float32"}, {"name": "batch_normalization_14/moving_mean", "shape": [64], "dtype": "float32"}, {"name": "batch_normalization_14/moving_variance", "shape": [64], "dtype": "float32"}, {"name": "batch_normalization_15/gamma", "shape": [64], "dtype": "float32"}, {"name": "batch_normalization_15/beta", "shape": [64], "dtype": "float32"}, {"name": "batch_normalization_15/moving_mean", "shape": [64], "dtype": "float32"}, {"name": "batch_normalization_15/moving_variance", "shape": [64], "dtype": "float32"}, {"name": "batch_normalization_16/gamma", "shape": [64], "dtype": "float32"}, {"name": "batch_normalization_16/beta", "shape": [64], "dtype": "float32"}, {"name": "batch_normalization_16/moving_mean", "shape": [64], "dtype": "float32"}, {"name": "batch_normalization_16/moving_variance", "shape": [64], "dtype": "float32"}, {"name": "batch_normalization_17/gamma", "shape": [64], "dtype": "float32"}, {"name": "batch_normalization_17/beta", "shape": [64], "dtype": "float32"}, {"name": "batch_normalization_17/moving_mean", "shape": [64], "dtype": "float32"}, {"name": "batch_normalization_17/moving_variance", "shape": [64], "dtype": "float32"}, {"name": "batch_normalization_18/gamma", "shape": [64], "dtype": "float32"}, {"name": "batch_normalization_18/beta", "shape": [64], "dtype": "float32"}, {"name": "batch_normalization_18/moving_mean", "shape": [64], "dtype": "float32"}, {"name": "batch_normalization_18/moving_variance", "shape": [64], "dtype": "float32"}, {"name": "batch_normalization_19/gamma", "shape": [64], "dtype": "float32"}, {"name": "batch_normalization_19/beta", "shape": [64], "dtype": "float32"}, {"name": "batch_normalization_19/moving_mean", "shape": [64], "dtype": "float32"}, {"name": "batch_normalization_19/moving_variance", "shape": [64], "dtype": "float32"}, {"name": "batch_normalization_2/gamma", "shape": [64], "dtype": "float32"}, {"name": "batch_normalization_2/beta", "shape": [64], "dtype": "float32"}, {"name": "batch_normalization_2/moving_mean", "shape": [64], "dtype": "float32"}, {"name": "batch_normalization_2/moving_variance", "shape": [64], "dtype": "float32"}, {"name": "batch_normalization_20/gamma", "shape": [64], "dtype": "float32"}, {"name": "batch_normalization_20/beta", "shape": [64], "dtype": "float32"}, {"name": "batch_normalization_20/moving_mean", "shape": [64], "dtype": "float32"}, {"name": "batch_normalization_20/moving_variance", "shape": [64], "dtype": "float32"}, {"name": "batch_normalization_21/gamma", "shape": [64], "dtype": "float32"}, {"name": "batch_normalization_21/beta", "shape": [64], "dtype": "float32"}, {"name": "batch_normalization_21/moving_mean", "shape": [64], "dtype": "float32"}, {"name": "batch_normalization_21/moving_variance", "shape": [64], "dtype": "float32"}, {"name": "batch_normalization_22/gamma", "shape": [64], "dtype": "float32"}, {"name": "batch_normalization_22/beta", "shape": [64], "dtype": "float32"}, {"name": "batch_normalization_22/moving_mean", "shape": [64], "dtype": "float32"}, {"name": "batch_normalization_22/moving_variance", "shape": [64], "dtype": "float32"}, {"name": "batch_normalization_23/gamma", "shape": [64], "dtype": "float32"}, {"name": "batch_normalization_23/beta", "shape": [64], "dtype": "float32"}, {"name": "batch_normalization_23/moving_mean", "shape": [64], "dtype": "float32"}, {"name": "batch_normalization_23/moving_variance", "shape": [64], "dtype": "float32"}, {"name": "batch_normalization_24/gamma", "shape": [64], "dtype": "float32"}, {"name": "batch_normalization_24/beta", "shape": [64], "dtype": "float32"}, {"name": "batch_normalization_24/moving_mean", "shape": [64], "dtype": "float32"}, {"name": "batch_normalization_24/moving_variance", "shape": [64], "dtype": "float32"}, {"name": "batch_normalization_25/gamma", "shape": [64], "dtype": "float32"}, {"name": "batch_normalization_25/beta", "shape": [64], "dtype": "float32"}, {"name": "batch_normalization_25/moving_mean", "shape": [64], "dtype": "float32"}, {"name": "batch_normalization_25/moving_variance", "shape": [64], "dtype": "float32"}, {"name": "batch_normalization_26/gamma", "shape": [64], "dtype": "float32"}, {"name": "batch_normalization_26/beta", "shape": [64], "dtype": "float32"}, {"name": "batch_normalization_26/moving_mean", "shape": [64], "dtype": "float32"}, {"name": "batch_normalization_26/moving_variance", "shape": [64], "dtype": "float32"}, {"name": "batch_normalization_27/gamma", "shape": [64], "dtype": "float32"}, {"name": "batch_normalization_27/beta", "shape": [64], "dtype": "float32"}, {"name": "batch_normalization_27/moving_mean", "shape": [64], "dtype": "float32"}, {"name": "batch_normalization_27/moving_variance", "shape": [64], "dtype": "float32"}, {"name": "batch_normalization_28/gamma", "shape": [64], "dtype": "float32"}, {"name": "batch_normalization_28/beta", "shape": [64], "dtype": "float32"}, {"name": "batch_normalization_28/moving_mean", "shape": [64], "dtype": "float32"}, {"name": "batch_normalization_28/moving_variance", "shape": [64], "dtype": "float32"}, {"name": "batch_normalization_29/gamma", "shape": [64], "dtype": "float32"}, {"name": "batch_normalization_29/beta", "shape": [64], "dtype": "float32"}, {"name": "batch_normalization_29/moving_mean", "shape": [64], "dtype": "float32"}, {"name": "batch_normalization_29/moving_variance", "shape": [64], "dtype": "float32"}, {"name": "batch_normalization_3/gamma", "shape": [64], "dtype": "float32"}, {"name": "batch_normalization_3/beta", "shape": [64], "dtype": "float32"}, {"name": "batch_normalization_3/moving_mean", "shape": [64], "dtype": "float32"}, {"name": "batch_normalization_3/moving_variance", "shape": [64], "dtype": "float32"}, {"name": "batch_normalization_30/gamma", "shape": [64], "dtype": "float32"}, {"name": "batch_normalization_30/beta", "shape": [64], "dtype": "float32"}, {"name": "batch_normalization_30/moving_mean", "shape": [64], "dtype": "float32"}, {"name": "batch_normalization_30/moving_variance", "shape": [64], "dtype": "float32"}, {"name": "batch_normalization_31/gamma", "shape": [64], "dtype": "float32"}, {"name": "batch_normalization_31/beta", "shape": [64], "dtype": "float32"}, {"name": "batch_normalization_31/moving_mean", "shape": [64], "dtype": "float32"}, {"name": "batch_normalization_31/moving_variance", "shape": [64], "dtype": "float32"}, {"name": "batch_normalization_32/gamma", "shape": [64], "dtype": "float32"}, {"name": "batch_normalization_32/beta", "shape": [64], "dtype": "float32"}, {"name": "batch_normalization_32/moving_mean", "shape": [64], "dtype": "float32"}, {"name": "batch_normalization_32/moving_variance", "shape": [64], "dtype": "float32"}, {"name": "batch_normalization_4/gamma", "shape": [64], "dtype": "float32"}, {"name": "batch_normalization_4/beta", "shape": [64], "dtype": "float32"}, {"name": "batch_normalization_4/moving_mean", "shape": [64], "dtype": "float32"}, {"name": "batch_normalization_4/moving_variance", "shape": [64], "dtype": "float32"}, {"name": "batch_normalization_5/gamma", "shape": [64], "dtype": "float32"}, {"name": "batch_normalization_5/beta", "shape": [64], "dtype": "float32"}, {"name": "batch_normalization_5/moving_mean", "shape": [64], "dtype": "float32"}, {"name": "batch_normalization_5/moving_variance", "shape": [64], "dtype": "float32"}, {"name": "batch_normalization_6/gamma", "shape": [64], "dtype": "float32"}, {"name": "batch_normalization_6/beta", "shape": [64], "dtype": "float32"}, {"name": "batch_normalization_6/moving_mean", "shape": [64], "dtype": "float32"}, {"name": "batch_normalization_6/moving_variance", "shape": [64], "dtype": "float32"}, {"name": "batch_normalization_7/gamma", "shape": [64], "dtype": "float32"}, {"name": "batch_normalization_7/beta", "shape": [64], "dtype": "float32"}, {"name": "batch_normalization_7/moving_mean", "shape": [64], "dtype": "float32"}, {"name": "batch_normalization_7/moving_variance", "shape": [64], "dtype": "float32"}, {"name": "batch_normalization_8/gamma", "shape": [64], "dtype": "float32"}, {"name": "batch_normalization_8/beta", "shape": [64], "dtype": "float32"}, {"name": "batch_normalization_8/moving_mean", "shape": [64], "dtype": "float32"}, {"name": "batch_normalization_8/moving_variance", "shape": [64], "dtype": "float32"}, {"name": "batch_normalization_9/gamma", "shape": [64], "dtype": "float32"}, {"name": "batch_normalization_9/beta", "shape": [64], "dtype": "float32"}, {"name": "batch_normalization_9/moving_mean", "shape": [64], "dtype": "float32"}, {"name": "batch_normalization_9/moving_variance", "shape": [64], "dtype": "float32"}, {"name": "conv2d/kernel", "shape": [9, 9, 3, 64], "dtype": "float32"}, {"name": "conv2d/bias", "shape": [64], "dtype": "float32"}, {"name": "conv2d_1/kernel", "shape": [3, 3, 64, 64], "dtype": "float32"}, {"name": "conv2d_1/bias", "shape": [64], "dtype": "float32"}, {"name": "conv2d_10/kernel", "shape": [3, 3, 64, 64], "dtype": "float32"}, {"name": "conv2d_10/bias", "shape": [64], "dtype": "float32"}, {"name": "conv2d_11/kernel", "shape": [3, 3, 64, 64], "dtype": "float32"}, {"name": "conv2d_11/bias", "shape": [64], "dtype": "float32"}, {"name": "conv2d_12/kernel", "shape": [3, 3, 64, 64], "dtype": "float32"}, {"name": "conv2d_12/bias", "shape": [64], "dtype": "float32"}, {"name": "conv2d_13/kernel", "shape": [3, 3, 64, 64], "dtype": "float32"}, {"name": "conv2d_13/bias", "shape": [64], "dtype": "float32"}, {"name": "conv2d_14/kernel", "shape": [3, 3, 64, 64], "dtype": "float32"}, {"name": "conv2d_14/bias", "shape": [64], "dtype": "float32"}, {"name": "conv2d_15/kernel", "shape": [3, 3, 64, 64], "dtype": "float32"}, {"name": "conv2d_15/bias", "shape": [64], "dtype": "float32"}, {"name": "conv2d_16/kernel", "shape": [3, 3, 64, 64], "dtype": "float32"}, {"name": "conv2d_16/bias", "shape": [64], "dtype": "float32"}, {"name": "conv2d_17/kernel", "shape": [3, 3, 64, 64], "dtype": "float32"}, {"name": "conv2d_17/bias", "shape": [64], "dtype": "float32"}, {"name": "conv2d_18/kernel", "shape": [3, 3, 64, 64], "dtype": "float32"}, {"name": "conv2d_18/bias", "shape": [64], "dtype": "float32"}, {"name": "conv2d_19/kernel", "shape": [3, 3, 64, 64], "dtype": "float32"}, {"name": "conv2d_19/bias", "shape": [64], "dtype": "float32"}, {"name": "conv2d_2/kernel", "shape": [3, 3, 64, 64], "dtype": "float32"}, {"name": "conv2d_2/bias", "shape": [64], "dtype": "float32"}, {"name": "conv2d_20/kernel", "shape": [3, 3, 64, 64], "dtype": "float32"}, {"name": "conv2d_20/bias", "shape": [64], "dtype": "float32"}, {"name": "conv2d_21/kernel", "shape": [3, 3, 64, 64], "dtype": "float32"}, {"name": "conv2d_21/bias", "shape": [64], "dtype": "float32"}, {"name": "conv2d_22/kernel", "shape": [3, 3, 64, 64], "dtype": "float32"}, {"name": "conv2d_22/bias", "shape": [64], "dtype": "float32"}, {"name": "conv2d_23/kernel", "shape": [3, 3, 64, 64], "dtype": "float32"}, {"name": "conv2d_23/bias", "shape": [64], "dtype": "float32"}, {"name": "conv2d_24/kernel", "shape": [3, 3, 64, 64], "dtype": "float32"}, {"name": "conv2d_24/bias", "shape": [64], "dtype": "float32"}, {"name": "conv2d_25/kernel", "shape": [3, 3, 64, 64], "dtype": "float32"}, {"name": "conv2d_25/bias", "shape": [64], "dtype": "float32"}, {"name": "conv2d_26/kernel", "shape": [3, 3, 64, 64], "dtype": "float32"}, {"name": "conv2d_26/bias", "shape": [64], "dtype": "float32"}, {"name": "conv2d_27/kernel", "shape": [3, 3, 64, 64], "dtype": "float32"}, {"name": "conv2d_27/bias", "shape": [64], "dtype": "float32"}, {"name": "conv2d_28/kernel", "shape": [3, 3, 64, 64], "dtype": "float32"}, {"name": "conv2d_28/bias", "shape": [64], "dtype": "float32"}, {"name": "conv2d_29/kernel", "shape": [3, 3, 64, 64], "dtype": "float32"}, {"name": "conv2d_29/bias", "shape": [64], "dtype": "float32"}, {"name": "conv2d_3/kernel", "shape": [3, 3, 64, 64], "dtype": "float32"}, {"name": "conv2d_3/bias", "shape": [64], "dtype": "float32"}, {"name": "conv2d_30/kernel", "shape": [3, 3, 64, 64], "dtype": "float32"}, {"name": "conv2d_30/bias", "shape": [64], "dtype": "float32"}, {"name": "conv2d_31/kernel", "shape": [3, 3, 64, 64], "dtype": "float32"}, {"name": "conv2d_31/bias", "shape": [64], "dtype": "float32"}, {"name": "conv2d_32/kernel", "shape": [3, 3, 64, 64], "dtype": "float32"}, {"name": "conv2d_32/bias", "shape": [64], "dtype": "float32"}, {"name": "conv2d_33/kernel", "shape": [3, 3, 64, 64], "dtype": "float32"}, {"name": "conv2d_33/bias", "shape": [64], "dtype": "float32"}, {"name": "conv2d_34/kernel", "shape": [3, 3, 64, 256], "dtype": "float32"}, {"name": "conv2d_34/bias", "shape": [256], "dtype": "float32"}, {"name": "conv2d_35/kernel", "shape": [3, 3, 256, 256], "dtype": "float32"}, {"name": "conv2d_35/bias", "shape": [256], "dtype": "float32"}, {"name": "conv2d_36/kernel", "shape": [9, 9, 256, 3], "dtype": "float32"}, {"name": "conv2d_36/bias", "shape": [3], "dtype": "float32"}, {"name": "conv2d_4/kernel", "shape": [3, 3, 64, 64], "dtype": "float32"}, {"name": "conv2d_4/bias", "shape": [64], "dtype": "float32"}, {"name": "conv2d_5/kernel", "shape": [3, 3, 64, 64], "dtype": "float32"}, {"name": "conv2d_5/bias", "shape": [64], "dtype": "float32"}, {"name": "conv2d_6/kernel", "shape": [3, 3, 64, 64], "dtype": "float32"}, {"name": "conv2d_6/bias", "shape": [64], "dtype": "float32"}, {"name": "conv2d_7/kernel", "shape": [3, 3, 64, 64], "dtype": "float32"}, {"name": "conv2d_7/bias", "shape": [64], "dtype": "float32"}, {"name": "conv2d_8/kernel", "shape": [3, 3, 64, 64], "dtype": "float32"}, {"name": "conv2d_8/bias", "shape": [64], "dtype": "float32"}, {"name": "conv2d_9/kernel", "shape": [3, 3, 64, 64], "dtype": "float32"}, {"name": "conv2d_9/bias", "shape": [64], "dtype": "float32"}, {"name": "p_re_lu/alpha", "shape": [1, 1, 64], "dtype": "float32"}, {"name": "p_re_lu_1/alpha", "shape": [1, 1, 64], "dtype": "float32"}, {"name": "p_re_lu_10/alpha", "shape": [1, 1, 64], "dtype": "float32"}, {"name": "p_re_lu_11/alpha", "shape": [1, 1, 64], "dtype": "float32"}, {"name": "p_re_lu_12/alpha", "shape": [1, 1, 64], "dtype": "float32"}, {"name": "p_re_lu_13/alpha", "shape": [1, 1, 64], "dtype": "float32"}, {"name": "p_re_lu_14/alpha", "shape": [1, 1, 64], "dtype": "float32"}, {"name": "p_re_lu_15/alpha", "shape": [1, 1, 64], "dtype": "float32"}, {"name": "p_re_lu_16/alpha", "shape": [1, 1, 64], "dtype": "float32"}, {"name": "p_re_lu_17/alpha", "shape": [1, 1, 256], "dtype": "float32"}, {"name": "p_re_lu_18/alpha", "shape": [1, 1, 256], "dtype": "float32"}, {"name": "p_re_lu_2/alpha", "shape": [1, 1, 64], "dtype": "float32"}, {"name": "p_re_lu_3/alpha", "shape": [1, 1, 64], "dtype": "float32"}, {"name": "p_re_lu_4/alpha", "shape": [1, 1, 64], "dtype": "float32"}, {"name": "p_re_lu_5/alpha", "shape": [1, 1, 64], "dtype": "float32"}, {"name": "p_re_lu_6/alpha", "shape": [1, 1, 64], "dtype": "float32"}, {"name": "p_re_lu_7/alpha", "shape": [1, 1, 64], "dtype": "float32"}, {"name": "p_re_lu_8/alpha", "shape": [1, 1, 64], "dtype": "float32"}, {"name": "p_re_lu_9/alpha", "shape": [1, 1, 64], "dtype": "float32"}]}]}